models/topic-classifier-neural-network.pth (torch, 819256 bytes, 20 tensors)

weight f4 [128, 1536]
00000000: 5b95 b7bd 949b c43d dc7f cc3d 30d9 f33d
00000010: 74ff 683c b908 f4bd a125 213e 000b 7cbe
00000020: 10b4 183e 2ff3 f5bc 96eb 143e 34ab f33b
00000030: 4878 7c3d da27 623d ddf7 993d 81ab 55be
00000040: 119d 9e3d 559b 003f c562 00bd e5a1 87bc
00000050: b6b7 c53c a688 c4bd dc13 c9bc ac50 6bbd
00000060: d759 963e 87d0 17bd cf51 3fbd 7cd1 40be
00000070: 81db c2bc 136d a0bb a1e7 2abe 0037 9bbd
00000080: 43e9 a3bd 0daf 0dbe 53ca 4bbe d109 bdbd
00000090: d2c7 df3d af35 003e 04f4 10bd d010 0abe
000000a0: c5d2 29be 31d0 d1bd a7fc f53d d5ca 133d
000000b0: 31bd 4fbe 4708 66bc 13cc dbbd 531f 96bc
000000c0: 8026 803d b078 d1bc 36dc dabd 9138 43be
000000d0: ca19 08bd 7b7d 9cbe ce8c f63d bdbf 8f3e
000000e0: f176 053e a4c7 1ebd fae1 f83d 49a1 5a3e
000000f0: 81bd aa3c 5bb0 7a3c 3026 563e 078e 10be
00000100: 580f 8a3d 6a96 7c3d af84 33be 6ba9 ecbe
00000110: abf6 39be 4289 2a3d acee 8b3c 9704 6bbc
00000120: 0cc2 323e e0b5 63bd 80a1 09be 7790 1b3e
00000130: cfc3 16bd fb9e 383e ebec 92bd 3bdd 47be
00000140: 52ff 3b3e 687f 383d 09ef 0bbe 2899 693d
00000150: 3e79 ce3c 46da 323e e9cb 513b 38ac 62bd
00000160: f629 b33c 240d 883d c97b a53d 086f e33d
00000170: 711d e6bb 391c ad3d 9d0e 773e 2b20 8d3e
00000180: 9cb0 933e 5bef 993c de06 063e 4317 903d
00000190: 7bb4 093e 2522 8f3e d19c 1bbd 0bfe 59be
000001a0: d1d4 043d 7624 18be 3557 0dbe cf02 35bd
000001b0: 059e df3d 5779 56bd 46d4 25bd 4eeb 9b3c
000001c0: e6e6 773d b434 0dbe 42e0 193e 545b c53c
000001d0: 7b65 02be ebd2 95bc 5021 6fbe a4b8 093e
000001e0: 19f9 043e e6f7 533a 66a9 863b 06c2 69bd
000001f0: 3d7a a3bd ca1a 6fbe 70d9 f7bd c032 123c
00000200: 0f2d f03c 85f8 f33d 6014 be3d 3a38 663e
00000210: d81e 0fbc 1ad5 f1bd e363 b93d cff5 593d
00000220: 5ec3 b1bd a649 96be 8d40 743d 16a6 7f3d
00000230: 338c 7b3e 28f9 d73b 5680 1a3d 09df 91bd
00000240: a2a8 123d 0431 e43c f06d 27bd ad57 2e3c
00000250: 79b0 df3d 578d cebd 1669 c33b f3f8 74be
00000260: 9c3e c7bc 6799 8cbe cd09 82bd 30af a43d
00000270: f05c d8bd e610 bdbe 0dc7 aebd ab09 013e
00000280: 8b10 4b3e c5b2 c73d b9ec e23c 7c8e 97bb
00000290: 2d74 113d 1796 c83d 0193 c53d ef42 2fbd
000002a0: a44e 3abe 5175 34bd 3054 b83a 955c 583e
000002b0: 4b75 4e3d 113d 623e e0c1 54bd fa85 2abe
000002c0: 4911 403e 7347 0abc 8fe6 99bd e436 e53d
000002d0: 83e6 d2bd 799c cbbd abe3 873c c963 df3d
000002e0: 380a 0abe 1507 703e f704 9ebc eb60 2bbc
000002f0: ea98 1e3d 2f07 2f3e 4424 a93d b988 bc3d
00000300: 0176 0dbe 180a a5bd 5093 a33d 680a fd3d
00000310: 3f4c dc3d e3f3 bb3e 3029 c93c c27d 263d
00000320: e613 08bb 7cab 0e3e 425e bcbc 8bcd a9bc
00000330: 6f09 02be 0529 a83c 6369 553c bb06 833e
00000340: 436f 973d 8da2 743e 7820 c2bd b3fa 623e
00000350: 2b4a 483e b60d 27be 8615 bf3d 2928 8dbd
00000360: baf4 b2bd f2a6 14be e16a f73c b3f1 8dbd
00000370: b2bf 35bd 23e1 f6bc 6b77 7bbd 0cc7 bb3d
00000380: ada3 b83d e510 ee3d 0d06 223e d247 b73c
00000390: 3033 013d 446a fa3d e12a 393d 7781 573e
000003a0: bbe2 a63c 2a79 1ebd ba9e 1fbe 6ab1 1ebe
000003b0: 81aa 98bd 8ffe 97bd d928 303e af77 10bc
000003c0: c368 01be 1af6 07bd 231d fbbd 18c9 8cbd
000003d0: 5722 36be ecf6 a03d a4ff 563e ecbb a1be
000003e0: a44b b8bd 4376 e93d 432e 79bd 12d0 903e
000003f0: a30c 053d 0c87 be3d 5f41 2b3e 24d2 c63d
-0.08964034 0.09599987 0.09985325 0.119066596 0.014221061 -0.11915726 0.1573701 -0.24613571
0.14912438 -0.030023186 0.14542994 0.0074361805 0.061638147 0.055213787 0.07517979 -0.20866205
0.07744802 0.5023702 -0.031344194 -0.01655669 0.024135452 -0.09596376 -0.024545603 -0.05744998
0.29365417 -0.0370641 -0.046708878 -0.18829912 -0.023786308 -0.004895815 -0.16689922 -0.0757885
-0.080034755 -0.13836308 -0.199014 -0.09230388 0.109267846 0.12520479 -0.03538896 -0.13482976
-0.16584308 -0.102447875 0.1201108 0.036082108 -0.20287015 -0.014040059 -0.107322834 -0.018325483
0.06257343 -0.025570244 -0.10686533 -0.19064547 -0.03322772 -0.30564484 0.12038575 0.28075972
0.13033654 -0.03876461 0.121524766 0.21350588 0.020842316 0.0153008355 0.20913005 -0.14116679
0.06741208 0.061666884 -0.17531084 -0.46223006 -0.18160503 0.041634806 0.017081581 -0.014344356
0.17456836 -0.05559337 -0.13440514 0.15191828 -0.03680783 0.18029396 -0.07174095 -0.19517986
0.18359116 0.04504338 -0.13665403 0.057030827 0.025204297 0.17466077 0.003201241 -0.05534002
0.021870594 0.066431314 0.08080251 0.11105162 -0.0070225527 0.08452649 0.24126668 0.27563605
0.2884568 0.018790891 0.13088557 0.07035687 0.13447754 0.27955738 -0.03799135 -0.21288316
0.03242952 -0.14857659 -0.13802798 -0.04419213 0.10918812 -0.052361812 -0.040485643 0.0190331
0.060522936 -0.13789636 0.15026954 0.0240914 -0.12734024 -0.01828905 -0.23352551 0.13449341
0.12985648 0.0008085951 0.0041095493 -0.0570698 -0.079822995 -0.23350063 -0.1210202 0.008923233
0.02931836 0.11912636 0.0928123 0.22482386 -0.008735381 -0.11808224 0.09052255 0.053212937
-0.086798415 -0.29353064 0.059631873 0.06241425 0.245652 0.006590981 0.037720047 -0.07122619
0.035805352 0.027855404 -0.04087633 0.010641021 0.10922331 -0.10085552 0.005963455 -0.23923092
-0.024321847 -0.27460787 -0.063495256 0.08041227 -0.105646014 -0.36926955 -0.0853406 0.12601344
0.1983053 0.097508945 0.027700769 -0.0046251398 0.035511184 0.09794252 0.096471794 -0.042788442
-0.18194062 -0.044057194 0.0014063176 0.21129067 0.050404828 0.22093607 -0.051942706 -0.1665267
0.18756594 -0.008439886 -0.07514679 0.1119211 -0.10297873 -0.09941954 0.016588053 0.109077044
-0.1348046 0.23440202 -0.019289477 -0.010460119 0.03872005 0.17092584 0.0825887 0.09205765
-0.13814546 -0.08058566 0.07987082 0.123555005 0.1075673 0.36709508 0.024555773 0.040647276
-0.0020763814 0.13932604 -0.022994164 -0.020727893 -0.12698911 0.020527372 0.013025614 0.25591072
0.07394268 0.23890133 -0.09478849 0.22165947 0.19559543 -0.16313824 0.09330277 -0.068924256
-0.08738084 -0.1451681 0.030202331 -0.06930866 -0.044372268 -0.03013665 -0.061393183 0.091688246
0.09015594 0.11624316 0.1582262 0.022373114 0.031542957 0.122273 0.045206908 0.2104548
0.020371785 -0.03868977 -0.15587893 -0.15497366 -0.07454396 -0.074216 0.17203082 -0.008817597
-0.1263762 -0.033193685 -0.12261417 -0.06874293 -0.17786537 0.078595966 0.20995957 -0.31588686
-0.08998802 0.1139951 -0.060835134 0.28283745 0.032482754 0.09303102 0.16724156 0.0970805

bias f4 [128]
00000000: a9d2 64bd d51f 0bbd a571 10ba 706b cfbd
00000010: a63a 363d 819d f5bd 4b2d 803c fec4 923c
00000020: b90c a03d 31a0 283d a2bd b23c e023 d0bc
00000030: 2e66 a43d 2981 13bd cd15 323d 4451 b03d
00000040: 1011 3d3c 8a4d fb3c c519 c3bb 4b88 8e3d
00000050: c87e 813d 1a13 16bd 4fc4 9dbd a198 963d
00000060: 1606 bf3c 2c31 5dbd 7644 ca3d 03aa 8f3d
00000070: b9e2 4d3b 6bf5 d6bd 0b1f babd 094d a4bc
00000080: c179 27bd deb4 0b3d 3ed3 a4bd 772a b13c
00000090: a1c0 6b3a 61a0 91bd 7d59 2fbc 1e60 6bbd
000000a0: 23da 123d 97fd 6d3c 6162 003d 93bb 53bd
000000b0: d79a 3b3c 24a7 203d a927 653c 0d02 f5bc
000000c0: f761 b5bd d42d 8bbd 992d 783c d1ea abbc
000000d0: 0188 70bd a5d5 4ebd 4b23 783c 13f5 a23c
000000e0: 2c80 ab3c cef9 6fbd a0ff c23c 1e43 3e3d
000000f0: 444a 94bd eb33 a1bb f3bb bd3d 84f4 9bbd
00000100: 15a0 65bd 281d 58bd d0de 913d 6f78 65bd
00000110: 1d1b 0fbd c38a 2e3e 0e2e 5dbd 6cb2 8e3c
00000120: bdd3 763a f008 9c3d 8953 963c f1bb f2bc
00000130: 9fe6 c7bb ad12 9abd 20e3 e5b9 f6bb af3c
00000140: 7984 af3c b7ef 9c3d 4208 d83d f1ad 9db9
00000150: 8f7a 5d3c 2892 dfbb d3f2 a5bb 9479 993d
00000160: c478 9abd 3046 9ebd 21c8 24bd 39a5 a03d
00000170: ea7f 99b8 b09c 793d 378c c43d 5d1f 86bd
00000180: 0531 b63c 4b1b 54bd 8716 94bc 4116 f33b
00000190: 4e4b 163d b2ea edbb 224f 643d a477 aebc
000001a0: 5826 df3c 1380 c7bd 27f7 bc38 ea15 44bd
000001b0: 3970 30bd f329 f63c 3111 a3bd d3c7 093c
000001c0: c162 80bd e51c bd3d 7214 2dbb e327 903c
000001d0: c4e8 b3bd bf06 1f3c 4ae1 4d39 6b60 80bd
000001e0: 0250 753c 3ee8 bfbc b146 7d3d 17c0 f33c
000001f0: 36db 16bc a01d b83d d9ba 86bc 0c13 b6bd
-0.055864964 -0.033965904 -0.00055100984 -0.10127914 0.044489525 -0.11992932 0.015646597 0.017916199
0.07814927 0.041168395 0.02181894 -0.025407732 0.08027302 -0.03601185 0.043477822 0.0860925
0.011539713 0.030676622 -0.0059539997 0.069595896 0.0632301 -0.03663931 -0.077034585 0.073533304
0.023318332 -0.054001972 0.09876339 0.07014849 0.0031415655 -0.104960285 -0.09087952 -0.020056264
-0.040887598 0.034108035 -0.08048104 0.021626694 0.00089932425 -0.07110668 -0.010702488 -0.05746471
0.035852563 0.014525793 0.03134382 -0.051692557 0.011450491 0.039221898 0.0139865065 -0.029908204
-0.08856576 -0.067958504 0.01514759 -0.020985993 -0.058723453 -0.050496716 0.015145133 0.019892251
0.02093514 -0.05858784 0.023803532 0.046450727 -0.072407275 -0.004919519 0.09264364 -0.07614997
-0.05606087 -0.05276218 0.07122576 -0.056023058 -0.034937967 0.17045121 -0.053999 0.017419063
0.0009415707 0.07618892 0.01835038 -0.029630633 -0.00610049 -0.075230934 -0.00043847505 0.021451931
0.021425473 0.076629095 0.1054845 -0.0003007497 0.01351799 -0.006822843 -0.0050643473 0.07493892
-0.075425655 -0.07728231 -0.04022992 0.07844014 -7.3194344e-05 0.060940444 0.09597056 -0.06548951
0.022240171 -0.05178384 -0.018077148 0.0074184244 0.03669291 -0.007260644 0.05573953 -0.021297283
0.027239963 -0.09741225 9.010574e-05 -0.04787246 -0.043075774 0.0300493 -0.079622634 0.008409458
-0.06268836 0.09234027 -0.0026409891 0.017597144 -0.08784631 0.009706198 0.0001963425 -0.0626839
0.014972689 -0.023426171 0.061834995 0.029754682 -0.009207537 0.089900255 -0.016446518 -0.08890352

weight f4 [128]
00000000: f000 483f 6fd8 4a3f 2364 603f 64e7 323f
00000010: c8dc 6b3f 523b 4c3f 0067 443f fafe 463f
00000020: e88e 543f 3fea 4c3f 390b 5b3f 9fef 503f
00000030: 9302 3e3f 459c 3d3f 7e7f 3e3f e412 383f
00000040: 0984 3f3f e424 393f f426 3b3f 232b 4d3f
00000050: bc71 4b3f 65f9 463f bd14 483f 9ca2 373f
00000060: d6ef 423f c3a7 373f f904 493f e3cc 393f
00000070: 64d4 323f 6fe4 573f 118f 4a3f b3ae 463f
00000080: cbd4 4f3f c3d1 4f3f 4be0 4f3f 6ebe 513f
00000090: 880a 473f d23c 553f 9971 4c3f c55c 3e3f
000000a0: ce96 443f c9ce 4f3f c469 4b3f d763 5e3f
000000b0: 9766 413f bb1b 543f fe49 403f 9bd1 3e3f
000000c0: 0b92 3b3f fccd 623f 5069 393f 9408 3a3f
000000d0: a4fe 483f 8ac2 443f 80d4 463f 7b7d 4e3f
000000e0: da9a 4b3f a680 3a3f 618a 513f 0190 4f3f
000000f0: 2ac1 403f 7daf 543f 3e83 443f 3c12 513f
00000100: 3daa 343f 2c25 493f b0f1 4f3f 649d 393f
00000110: 148c 543f 8847 5f3f 0037 513f c49d 3c3f
00000120: aec7 453f 9b65 443f d4f5 433f 4813 4d3f
00000130: 5ab4 5e3f d256 443f bc7b 4d3f 6f1f 523f
00000140: c0b8 4b3f e558 3c3f a033 583f aded 313f
00000150: 53f5 5d3f 5169 533f 199a 4a3f 802a 353f
00000160: 6267 4e3f 4b46 4a3f 6de9 563f e621 4d3f
00000170: 8037 403f 0e15 463f a244 413f f456 4e3f
00000180: d1dc 3b3f 5492 4a3f a648 493f 7cde 423f
00000190: 9cf5 393f 2ce5 503f 3b6d 3a3f 0fe9 4b3f
000001a0: acad 343f 73b7 3c3f d2a7 393f 59f2 493f
000001b0: 4dec 3a3f 43c8 383f 1bde 4d3f 47ef 3f3f
000001c0: c439 5e3f 2c92 333f 4d24 3b3f 38eb 3e3f
000001d0: 9fa2 373f c1a9 503f 43e4 443f 8f0d 493f
000001e0: 2bf1 5a3f 9617 313f 2d1d 4a3f 5334 4c3f
000001f0: 80cf 483f 85c7 3e3f 30a9 4b3f 9237 5b3f
0.7812643 0.792365 0.87652797 0.69884324 0.9213376 0.79778016 0.76719666 0.77732813
0.8303056 0.8004493 0.85564 0.8161563 0.7422268 0.74066573 0.7441329 0.71903825
0.74810845 0.72321916 0.7310631 0.80143946 0.7947042 0.77724296 0.78156644 0.717325
0.7614721 0.7174036 0.7852321 0.7257826 0.6985533 0.84332937 0.7912455 0.7761032
0.8118407 0.81179446 0.8120162 0.819312 0.77750444 0.8329593 0.79860836 0.74360305
0.7679261 0.81174904 0.7945826 0.86871094 0.75547165 0.82854813 0.75112903 0.7453858
0.7326972 0.8859556 0.7242632 0.7266934 0.7851355 0.76859343 0.77668 0.8066022
0.7953316 0.7285255 0.81851774 0.8107911 0.75294745 0.83080274 0.7676276 0.8166845
0.70572263 0.78572345 0.8122816 0.72505784 0.8302624 0.87218523 0.8172455 0.7367823
0.7725781 0.7671754 0.7654698 0.80107546 0.86993945 0.7669498 0.8026693 0.82079214
0.7957878 0.7357314 0.84453773 0.6950329 0.8670246 0.82582575 0.79141384 0.70767975
0.806265 0.7901351 0.8394993 0.8012985 0.75084686 0.77375877 0.7549535 0.8060143
0.73383814 0.7912953 0.7862648 0.76120734 0.72640395 0.8159969 0.7282292 0.79652494
0.705775 0.7371742 0.725217 0.7888542 0.73016816 0.72180575 0.8041703 0.74974483
0.86806893 0.70144916 0.73102266 0.74577665 0.71732515 0.81509024 0.769108 0.78536314
0.85524243 0.69176614 0.7895077 0.7976734 0.7844162 0.7452319 0.79555035 0.8563167

bias f4 [128]
00000000: d518 d6be aeb5 febe feb9 59bf f022 5dbf
00000010: 64dc 0fbf 9b52 1abf 82ef 01bf a4f0 23bf
00000020: b53b 52bf 6cb6 1fbf 5569 19bf c93e 32bf
00000030: fb05 8dbf bb6b 3abf 8b78 3dbf ae3e 50bf
00000040: ef82 30bf d40c 00bf 84bd 58bf efda f0be
00000050: 27f7 82bf 2761 19bf 87cb 07bf a420 53bf
00000060: b176 6ebf 5c65 e6be be7d 1ebf db6f 68bf
00000070: b71c 51bf c43d 27bf 5219 dfbe cf1f 2bbf
00000080: 7832 2bbf fb6b 0ebf 56df 41bf 0b67 28bf
00000090: 2b13 65bf aa7f 0ebf f381 2bbf ed41 1cbf
000000a0: 18e1 7abf 52d8 1abf 1081 e6be 54fa 0abf
000000b0: 7ad4 2abf 4dff 5abf 78a0 39bf a071 0dbf
000000c0: aa3b 2cbf 40da f7be a0fd 0bbf d734 81bf
000000d0: a9f6 1cbf 55b8 1abf ca48 19bf 7bf7 e3be
000000e0: f667 f7be b591 77bf 4bdb 1ebf 9989 02bf
000000f0: be31 08bf 9926 cfbe 5abb 0bbf c797 2fbf
00000100: 6dd1 0ebf 9d5e 35bf 7850 31bf c86f fabe
00000110: 26d1 17bf e999 01bf b6d5 1fbf 3cca 0fbf
00000120: 232b 36bf 9ef6 85bf a7ad 57bf 062f 35bf
00000130: f608 08bf 12df 63bf de84 24bf 6730 46bf
00000140: 6014 12bf 3a18 2abf 7238 49bf f526 10bf
00000150: 764d 36bf eb0a 26bf 4176 4bbf a593 2abf
00000160: d87b 0abf ec94 2cbf c58c 2abf ffb5 50bf
00000170: c6d7 3abf 44dc fabe 4a51 11bf a617 1cbf
00000180: 2702 7cbf 567f cabe d27f edbe 702b 56bf
00000190: 948f 64bf bfb1 28bf a51d 5cbf 3c70 29bf
000001a0: c976 83bf 4b59 6cbf 4807 1bbf c27f 4fbf
000001b0: ad67 bbbe cae7 5bbf 5fcb 49bf 3c44 4dbf
000001c0: 7d07 11bf 2dea 1abf 3c4c 29bf 95f0 24bf
000001d0: 0d61 67bf b21d 20bf f675 f6be 704b 14bf
000001e0: 40e7 19bf b9a6 5ebf 6e47 f4be 9ce9 2bbf
000001f0: 4b25 5bbf 51d0 1dbf e1fb 57bf bcb3 0bbf
-0.4181582 -0.49747986 -0.85049427 -0.86381435 -0.56195664 -0.60282296 -0.50756085 -0.64039063
-0.82122356 -0.6238773 -0.5992635 -0.6962705 -1.101745 -0.72820634 -0.7401206 -0.8134564
-0.6894979 -0.50019574 -0.8466418 -0.47042033 -1.0231675 -0.5991387 -0.53044933 -0.8247168
-0.9314986 -0.44999206 -0.6191062 -0.9079568 -0.8168444 -0.6532862 -0.43574005 -0.6684541
-0.66873884 -0.55633515 -0.7573141 -0.6578223 -0.89482373 -0.5566355 -0.6699516 -0.61038095
-0.97999716 -0.6048633 -0.45020342 -0.5428822 -0.66730464 -0.8554581 -0.7251048 -0.55251503
-0.6727854 -0.484087 -0.54683876 -1.009425 -0.61313874 -0.6043752 -0.5987669 -0.4452475
-0.48321503 -0.96706706 -0.62053365 -0.5099121 -0.532009 -0.40459135 -0.5458275 -0.6859097
-0.5578831 -0.70847493 -0.6926341 -0.48913407 -0.5930351 -0.50625473 -0.6243547 -0.5616796
-0.7115957 -1.0465887 -0.8424935 -0.7077488 -0.53138673 -0.89012253 -0.6426524 -0.77417606
-0.5706234 -0.66443217 -0.78601754 -0.56309444 -0.71211946 -0.6486041 -0.79477316 -0.6663154
-0.5409522 -0.67414737 -0.6662105 -0.81527704 -0.72985494 -0.48996174 -0.5676466 -0.60973585
-0.98440784 -0.39550275 -0.46386582 -0.8366003 -0.8928158 -0.6589622 -0.85982734 -0.6618688
-1.0270625 -0.9232375 -0.60557985 -0.8105432 -0.36602536 -0.8590056 -0.78825945 -0.8018224
-0.5665205 -0.60513574 -0.6613195 -0.644296 -0.9038246 -0.6254531 -0.48136872 -0.5792761
-0.60118484 -0.8697315 -0.47710747 -0.67153335 -0.8560378 -0.6164599 -0.8436871 -0.5457113

running_mean f4 [128]
00000000: 8bc8 6ebd 93a6 2abe a400 d63e a859 a1bc
00000010: 73de 373e e40c e53d 774d ec3d 9732 703e
00000020: 8e01 ed3e 1205 9a3e 7c6f 523e 8c8d 5a3d
00000030: af52 0c3e 5132 023e fa53 463e 9673 b03e
00000040: d4fd 593d 6a48 60be 13a1 d23d 0081 8dbd
00000050: 3d33 54bd 1cb1 85be 82c5 84be da41 b43d
00000060: 6eb5 9f3e 66a3 863d 2833 a93e 8a3d 4e3e
00000070: 698f 3f3d 546c 83bc afa4 89be 0709 413d
00000080: 3e8f 2f3e 32c8 83be 4f59 033e 8f5f b93e
00000090: 976a 493e b8c0 d8bd dd75 1b3d 9e76 69be
000000a0: 8ec2 ce3d 27f6 9d3c 4edd 86be 2343 81be
000000b0: 01df 0fbe cc14 063e 1a3f 5c3e e41e 373d
000000c0: 22ba 853c d72d 7bbd 8667 24be de4e 3e3e
000000d0: 1450 a6be b463 f5bd 9a08 39bd a2e6 c0bd
000000e0: c3ae debd 93cf 633c 06c9 9a3e f20c 063e
000000f0: 5044 6cbe d18e bb3d 43c9 d93c 5c24 96bd
00000100: 8800 7c3c b0d2 823e 1980 ac3c 8769 e1bd
00000110: 8731 22bc a2dc b83e a9c8 6e3d 1da2 afbd
00000120: 0fd9 1ebe c01a a93e c983 af3d ef5b 263c
00000130: 566f 7c3e bfa2 983e 4258 673d 8800 a93d
00000140: 5272 34be ea0c c13d 4e39 9b3e adf6 853d
00000150: 3846 ff3d c501 333e 8b2e 293e 58d4 4e3e
00000160: c074 eebd 7951 12be ad7d 803d b4bc ed3e
00000170: ac80 a13e 09af c4bc da85 bc3d df7a a73e
00000180: f793 2d3e dd99 65be 500b 98bd 38b2 973e
00000190: 7eda c2bd 1a86 f03d dc1d a43e 9d53 9c3e
000001a0: a5a8 803e d671 383e 64a3 c7bd 2208 82be
000001b0: da76 aabd 7bd2 003e f2af 4b3e 1660 003f
000001c0: 0e7f 703c 9c56 b1bc 49c5 0bbe 1581 07be
000001d0: 1f4c 133d aa8e cd3b 2199 9bbc 8904 4c3e
000001e0: 8a01 12be e77f 8ebc f283 37be a8dc 323d
000001f0: c2c5 f73d 96b1 24bd bbd3 f63c 6a2f 43be
-0.05829672 -0.16665106 0.41797364 -0.019696072 0.17955951 0.11184099 0.11538213 0.23456798
0.4629025 0.30081993 0.2055034 0.053357646 0.13703416 0.12714507 0.19367972 0.34463185
0.053220585 -0.21902624 0.10284629 -0.069093704 -0.051806677 -0.26111686 -0.25931937 0.08801623
0.31193107 0.065741345 0.33046842 0.20140663 0.046767626 -0.016042866 -0.26883456 0.04712775
0.17144486 -0.25738674 0.12827037 0.36205718 0.19669567 -0.10583633 0.0379542 -0.22799155
0.10095702 0.019282414 -0.26340717 -0.25246534 -0.14049913 0.13093871 0.21508446 0.044707194
0.016324107 -0.061323013 -0.16055116 0.18584773 -0.3248297 -0.119819075 -0.04517422 -0.0941899
-0.10873177 0.01390447 0.30231494 0.13090876 -0.23072934 0.091580994 0.026585227 -0.07331154
0.015380986 0.25551367 0.021057175 -0.11006456 -0.009899504 0.3610583 0.058296833 -0.085758425
-0.15512489 0.3302822 0.08570058 0.010153755 0.24651846 0.29811665 0.056480654 0.082520545
-0.17621735 0.09426291 0.30317158 0.0654119 0.12464565 0.17481144 0.16521661 0.2019819
-0.11643362 -0.14288892 0.06273971 0.46433032 0.3154348 -0.024009245 0.09205218 0.3271093
0.16950975 -0.22421975 -0.07424033 0.29628158 -0.0951433 0.11744328 0.3205403 0.30532542
0.25128666 0.18012175 -0.09747961 -0.2539683 -0.083234504 0.12580292 0.19891337 0.50146616
0.01467873 -0.021647744 -0.13649477 -0.13232835 0.035961267 0.0062731104 -0.018993916 0.19923605
-0.142584 -0.017394973 -0.17921427 0.043667465 0.12098266 -0.04020842 0.030130258 -0.19061056

running_var f4 [128]
00000000: e5b0 913c e0fb 4c3c 0bef e93b 6500 0c3c
00000010: c9cc 173c f770 423c 31bf 523c b1d0 2f3c
00000020: 649c 023c c8d8 323c 294c 3e3c 3a8a 323c
00000030: 7ffa ec3b 2beb 313c b999 4e3c 5a0f 093c
00000040: 458c 253c 8184 5d3c f952 f33b 3f4c 593c
00000050: c458 273c 265a 263c 55d6 733c 4b03 223c
00000060: e1da 0c3c 221f 613c 08bc 3c3c 7664 1c3c
00000070: 7bca 063c 0d76 4e3c 8da3 ad3c 1c6d 0f3c
00000080: e5a0 343c 4210 3e3c a663 483c 54fa 3f3c
00000090: e747 1a3c 94ff 6a3c be17 4d3c b286 433c
000000a0: 70f6 0a3c 1aac 633c 7e6b 853c 87d5 483c
000000b0: 337e 2d3c e747 2d3c 7179 1a3c aa1d 483c
000000c0: e422 2d3c eeb4 553c 109a 6d3c c0dd 183c
000000d0: 1c8e 513c 86da 3a3c 794a 583c 6cce 743c
000000e0: fa5e 953c 0d32 123c ec30 4e3c 1688 2c3c
000000f0: 6991 793c 0a66 6f3c 7ed3 5a3c 2dc4 533c
00000100: 1b51 3e3c 2c44 283c 5a8a 403c 22d6 5b3c
00000110: 7c8a 3f3c e028 613c 3d6d 483c 75f2 603c
00000120: 703c 4a3c c924 223c fc0a 6b3c f9d8 2d3c
00000130: 4392 363c f295 013c 1bfd 863c f760 343c
00000140: cef2 543c e945 2b3c 2139 3c3c cbc1 163c
00000150: c7c1 2e3c a91a 223c f5ef 353c 017e 3e3c
00000160: d6da 723c 3102 193c 8b08 2a3c 43bd 243c
00000170: 05de 163c e625 513c c303 753c 6f79 403c
00000180: 59b1 f53b 67f6 8c3c 9791 433c 7a94 113c
00000190: a1f5 243c 66c9 623c 0bde cb3b 6d84 203c
000001a0: d9dc e73b dcb2 2e3c 549f 383c 79f9 1d3c
000001b0: f6e5 4b3c 78cd ff3b a112 2a3c 17e7 013c
000001c0: 2f41 433c 4b2a 343c 6119 5c3c 7b71 5c3c
000001d0: 87ad 033c a2e6 7c3c 1599 493c c215 3b3c
000001e0: 72ea 763c 41ba f83b deea 853c 56cf 3a3c
000001f0: ccce 2c3c 43ff 253c 8364 0c3c 7ee4 483c
0.017784545 0.012511224 0.007139092 0.008545016 0.009265133 0.011867753 0.012862966 0.010730908
0.007971857 0.0109159425 0.011614838 0.010897214 0.00723201 0.010859291 0.0126098925 0.0083654765
0.010104244 0.013520361 0.0074256626 0.013262807 0.0102140345 0.010153329 0.014882644 0.00988848
0.008597107 0.013740333 0.0115194395 0.009545436 0.008226986 0.012601388 0.021196151 0.008754041
0.011024688 0.011600556 0.012230789 0.011717398 0.009416557 0.014343161 0.012517868 0.011933969
0.008481607 0.013896013 0.016286608 0.01225794 0.01058917 0.010576225 0.009428368 0.012214104
0.010567401 0.013043625 0.014502063 0.009330213 0.012790229 0.011404639 0.013201349 0.014941793
0.018233765 0.008923066 0.012584906 0.010530492 0.015232422 0.01461173 0.013356088 0.01292519
0.011616017 0.01027016 0.011751736 0.013417752 0.011690732 0.0137426555 0.012233076 0.013729681
0.012343511 0.009896466 0.014345881 0.010610812 0.01114327 0.007909285 0.016478112 0.011009446
0.012997342 0.01045368 0.01148823 0.009201477 0.010666317 0.009894052 0.0111045735 0.011626721
0.014822682 0.009338901 0.010378013 0.010054889 0.009208207 0.012765383 0.01495451 0.011747702
0.007497948 0.017207338 0.011936567 0.008885497 0.010068328 0.013841962 0.006221538 0.009797198
0.0070758876 0.010662761 0.011268456 0.009641998 0.012444964 0.007806476 0.010380418 0.007928631
0.011917396 0.010996412 0.013433785 0.01345479 0.008036978 0.0154358465 0.012304564 0.011418762
0.015070545 0.0075905626 0.016347345 0.011401972 0.010547351 0.01013166 0.008568886 0.012261508

weight f4 [32, 128]
00000000: 92d2 a13d 6412 1f3c e0c4 da3d dc46 47bd
00000010: 167e ce3d 04cc 2bbe f3eb 93be d2b5 963d
00000020: 3a56 c9ba a91b 4b3d 1361 553d 6453 123e
00000030: 517f 90bd 216b 3f3d f06c ae3d d6da 783d
00000040: bef0 93be 2a1f 0e3e 0128 3bbe 4679 323e
00000050: 00f5 d23b 677d 113e cf4e 8a3d c5a6 58be
00000060: 6c52 c2bd 7e36 b4be cf99 67be b03c 16be
00000070: 0200 0abe 39ea e2bd 5a31 d13d 799e 143e
00000080: 9513 b9be d793 dd3d 3981 59be f8f6 86be
00000090: 6664 a5be 4ac5 1b3e bb06 92be 3f6c d83b
000000a0: 7110 f4bb 1779 2abe b668 3c3e 3f54 1d3d
000000b0: 893b 923d 4ae0 c6be 787c 0a3e eec2 3a3c
000000c0: f5c5 0abe 1aed 8bbe 36a7 5ebe cb94 4dbe
000000d0: 65a6 093e 96d5 efbc 3b58 8d3c f2d5 ae3c
000000e0: aea8 223e 4aec dbbd a72d 06be f298 e8bc
000000f0: 2c13 803d e6d9 94bd e3cf 333e 724b afbe
00000100: df29 783d 2264 633e 71a6 dabd dfee bebe
00000110: 6bf2 45be 2e48 c3bb 85c5 bd3d f453 343d
00000120: e6b0 813d d17c 63be 81c6 ccbd 8ea0 96be
00000130: eb36 973b e765 853b 0ef8 ab3d 358c ecbd
00000140: 4865 7d3e 0b3c 0cbd bedb 89be 3e10 e13b
00000150: 55fe e7bd 3996 1a3e 7cbc fa3d 7328 4dbc
00000160: 2207 5bbe 8fd7 95bb da63 3dbe 53ff 043e
00000170: d478 84be 89cf 11be 7661 94bd a3df b0bd
00000180: 1f39 4bbe bcad ab3d a271 fdbd 00db 963d
00000190: 639e abbe f283 65be 2a5a e63d 4932 90be
000001a0: 4172 8fbc e4d3 adbe df65 26bd 703d 333e
000001b0: 61ef 90bd 4967 03bd ef6d 8bbd 82f7 463e
000001c0: 0d43 d6bd fc83 7dbc b73a 943b 2afc 55be
000001d0: 6b31 aebd 0722 c2bc 8335 99bd 1d06 9c3d
000001e0: 0235 2f3e 58d3 84be 5479 083e 65cc 11be
000001f0: 0498 9dbe 7cdd d63c 9c11 f33d 4c40 f1bd
00000200: 13cf 93be c300 b3be e6c2 60bd 0c52 bd3d
00000210: ec5a cf3c 5fdc 0e3e 95aa af3d aba4 90bd
00000220: e847 703d f77c f93d 1b53 af3d 157b 79be
00000230: 651d 5abe aa2b 1c3c 7219 ec3c 8af2 f63d
00000240: 1766 e83c bdd4 38be 95a9 833d 732e 9ebe
00000250: 21cd 8dbe 2ede 86bd 972c 88be 810b 4cbc
00000260: e080 ff3d 0914 ab3d 709f 123e af48 ba3d
00000270: 6d7d 073d cca2 373d b62b a2be 1434 b23d
00000280: 590b 813e b298 b1bd ef0f 333d a5a1 863e
00000290: f476 293e 2177 d9bd 164d 703d 8549 14be
000002a0: e962 61be 225d 1f3e 5a33 0bbe 311e 1ebd
000002b0: ba53 28be b25a c13d 56bc 61bb 6d16 00be
000002c0: 3e0d 423e 27b9 9b3b 390e 013c 9005 72be
000002d0: 0692 28be 11c4 c5be 6972 0dbe ef23 073d
000002e0: b430 2ebe 729c 75be 222c 7a3e e732 4abe
000002f0: b39b 91be db09 103d 2e16 8bbe 08eb 413e
00000300: 57f2 29bd ebe9 a3bc 5c14 6c3d 6cd7 943c
00000310: 9e82 ebbc fcc0 f83c b8aa 80be 4cc8 19be
00000320: 4205 73be 70d0 16be 7a79 4dbe baff 213e
00000330: c840 893d 5129 24be 4718 b0be 6575 323e
00000340: d5ba 85be 152b ae3c 5a37 143e f250 3ebd
00000350: 88f4 293e 9087 5dbe 9f79 dbbc 8e63 bd3c
00000360: 88d5 7d3e c46a 39be ea4d dc3c 7090 84be
00000370: 09e7 683e bc92 783c 6352 4fbe c926 3a3e
00000380: 3a67 9a3e 21f9 90be dcb6 d23c fb80 45be
00000390: 7f2a 343e f5ae e0bc fd13 0fbe 5854 293e
000003a0: d5e2 963d 56a4 0e3e 6454 ce3b deea 69bd
000003b0: bcfb ae3b 8fd5 b0bc c303 c63d dd54 7dbe
000003c0: 1fc9 563d a5a2 493c 97ab c0bd 7926 1c3e
000003d0: 7e66 7e3d ecc3 5bbe 848e 943c 8054 50be
000003e0: 7373 aebe 54a8 633e bee5 83be 8ad3 da3d
000003f0: d95a a9bd 398f 62be de5b 7bbe 2cbd ad3c
0.07901491 0.0097089745 0.10682082 -0.04865156 0.10082643 -0.16777045 -0.28890952 0.07358898
-0.001536078 0.049586926 0.05209453 0.14289623 -0.07055534 0.046733025 0.08516872 0.060755573
-0.2889461 0.13879076 -0.18276979 0.17429075 0.0064378977 0.14207993 0.06753313 -0.21157368
-0.09488377 -0.35197824 -0.22617267 -0.14671588 -0.13476565 -0.11079831 0.10214491 0.14513578
-0.36147752 0.10819214 -0.21240701 -0.26360297 -0.3230316 0.15211979 -0.2852076 0.006604701
-0.007448249 -0.16647755 0.18399319 0.03841042 0.07140262 -0.38842994 0.13524044 0.011399014
-0.13552077 -0.27329332 -0.21743473 -0.20076291 0.1344238 -0.02927665 0.017253986 0.021342251
0.15884659 -0.10738428 -0.13103352 -0.028393243 0.06253657 -0.07268123 0.17559771 -0.34237248
0.060586806 0.22206166 -0.106762774 -0.3729162 -0.19330756 -0.005959532 0.092661895 0.044025376
0.06332569 -0.22215582 -0.09998799 -0.29419369 0.004614701 0.0040709856 0.08396922 -0.1155018
0.24745667 -0.03423695 -0.26925462 0.0068683913 -0.11327807 0.15096368 0.12242982 -0.012521851
-0.2138944 -0.0045728157 -0.18495122 0.12988023 -0.25873435 -0.14239325 -0.07245152 -0.08636405
-0.19846009 0.083827466 -0.12375189 0.0736599 -0.33519277 -0.22413614 0.11247666 -0.28163365
-0.017510535 -0.33950722 -0.040624496 0.17503905 -0.07076908 -0.032080922 -0.068080775 0.19430354
-0.10462008 -0.015473362 0.004523601 -0.20896974 -0.085055195 -0.023697866 -0.0748091 0.076183535
0.17110065 -0.25942492 0.13327533 -0.14238127 -0.3078004 0.026228659 0.11868593 -0.11779842
-0.28868923 -0.3496152 -0.05487337 0.09244165 0.02531191 0.13951252 0.08577458 -0.07062658
0.058662325 0.12182038 0.08560773 -0.24363358 -0.21300276 0.009531895 0.028820727 0.120579794
0.028368993 -0.18049903 0.064288296 -0.30894813 -0.27695563 -0.06585346 -0.2659652 -0.012453915
0.12475753 0.08353431 0.14318633 0.090958945 0.0330786 0.04483299 -0.31673974 0.08701339
0.2520397 -0.086717024 0.043716367 0.262952 0.16549283 -0.10618425 0.058667265 -0.1448117
-0.22010387 0.15562871 -0.13593808 -0.03860301 -0.16438189 0.09441127 -0.0034444532 -0.12508555
0.18950364 0.0047522965 0.007876926 -0.23634934 -0.16461954 -0.3862615 -0.13813175 0.032993253
-0.17010766 -0.2398546 0.24430898 -0.1974598 -0.28439102 0.03516565 -0.2716536 0.18937314
-0.04149088 -0.020009002 0.057636604 0.018169127 -0.028748807 0.03036546 -0.25130248 -0.15017813
-0.23732474 -0.1472795 -0.20065871 0.15820208 0.06701809 -0.16031386 -0.34393522 0.17427595
-0.26119104 0.021260777 0.1447424 -0.046463914 0.16597188 -0.21633744 -0.026791392 0.02311876
0.24788487 -0.18107134 0.026892621 -0.25891447 0.22744383 0.015171703 -0.20246272 0.18178858
0.3015688 -0.2831507 0.02572196 -0.19287483 0.17594336 -0.027427176 -0.13972469 0.16536081
0.073674835 0.13929877 0.0062966812 -0.057108752 0.0053400677 -0.021586208 0.09668686 -0.24739404
0.052437898 0.012306844 -0.09407728 0.15249051 0.062109463 -0.21461457 0.018134363 -0.20344734
-0.34072456 0.22232181 -0.25761217 0.10684879 -0.08269281 -0.22124948 -0.24546763 0.021208368

bias f4 [32]
00000000: 4fad b83c b33a fcbb 33ad aa3c 8fff a73d
00000010: ae4d 8e3d 61d0 99bc 043f b0bc e616 f53c
00000020: 24d5 493d be74 bf3d f315 263d 5f57 203b
00000030: 7d26 4f3d acb3 073d e246 ecbb e7e7 91bd
00000040: ade5 9cbd c196 a63d 703d 77bd 95c1 a0bd
00000050: 06d4 713d a74c e53c 591a 833d f13f 1cbd
00000060: 1675 f0bc c4e2 853d 9e25 62bd 565b 1e3d
00000070: 891f ad3c 2be9 b4bd 74e4 743c 0811 383d
0.022543577 -0.007697427 0.020834541 0.08203041 0.0694841 -0.01877612 -0.021514423 0.029918145
0.049275532 0.09348439 0.040548276 0.002446614 0.050573815 0.033130333 -0.0072105983 -0.0712431
-0.07660995 0.08134223 -0.060361326 -0.07849423 0.059040092 0.027990652 0.0640151 -0.038146917
-0.029352706 0.06537393 -0.055211656 0.038661323 0.021133201 -0.08833536 0.014947046 0.044938117

weight f4 [32]
00000000: a1c8 783f 670b 813f 8bba 793f eaea 7e3f
00000010: 2ca8 793f fd0b 813f 63df 7c3f 493c 793f
00000020: da7d 783f 0fdf 723f d76a 713f bd77 813f
00000030: 16f6 823f 8501 833f 2da0 8a3f 72ca 7d3f
00000040: 198a 873f af86 693f 4516 663f f76c 7c3f
00000050: 6f69 813f 155a 733f eeba 7c3f 9e40 7e3f
00000060: 58dd 6c3f 87a0 733f 8f5a 7e3f eb78 6a3f
00000070: 7e9c 5d3f 6605 8a3f c71b 743f 415f 873f
0.97181135 1.0081605 0.97550267 0.995772 0.97522235 1.0081784 0.9877836 0.9735761
0.97067034 0.9487161 0.9430365 1.0114666 1.023135 1.0234839 1.0830132 0.9913703
1.0589019 0.91221136 0.8987773 0.9860377 1.0110301 0.9505933 0.9872273 0.9931735
0.92525244 0.9516682 0.9935693 0.91590756 0.86566913 1.0782897 0.95354885 1.0575944

bias f4 [32]
00000000: b5bb 39be 6fb4 4bbe db0e 3bbe bb61 82be
00000010: 4208 07be e444 38be 5ef6 49be aa2a 66be
00000020: e56a 8abe 7362 63be 1287 3fbe a541 87be
00000030: 1b15 0abe ceda 10bd 352e 25be 3cd1 74be
00000040: 8ff7 80be ddb8 3dbe b56c 2ebe c80a 7dbe
00000050: d079 12be 2f6c 92be a501 69be 9069 38be
00000060: 174f bfbe 5451 f1be 6fdd 6ebe f450 91be
00000070: 3ebd 08bf 789e 2abe 00ab 26be bf12 7abe
-0.18138011 -0.19893049 -0.18267386 -0.25465187 -0.13186744 -0.1799503 -0.19722888 -0.22477213
-0.2703468 -0.22205524 -0.18703869 -0.2641727 -0.13484614 -0.03536492 -0.16130908 -0.23907942
-0.25188872 -0.18527551 -0.17033656 -0.24711144 -0.1430428 -0.28598163 -0.22754534 -0.18009019
-0.37365028 -0.4713236 -0.23326658 -0.28382075 -0.5341376 -0.16662014 -0.16276169 -0.24421214

running_mean f4 [32]
00000000: 2b95 07bf e99c 08bf 0f96 f7be f356 e6be
00000010: a892 9ebe 7687 2ebf ca21 0bbf 25ed 08bf
00000020: d78a bbbe 8229 01bf 3df2 0abf e283 1bbf
00000030: 5c45 b4be 163c 0bbd 4bb8 b2be c0c3 3abf
00000040: dcaa 32bf eb4e b2be 221e 08bf b6e3 d4be
00000050: 3bae d3be 9bfb 28bf 2abf 9fbe cc9f 04bf
00000060: c119 61bf 2202 44bf c0cc 20bf 3f96 3abf
00000070: 0719 7bbf 39e1 babe dbea edbe 6991 94be
-0.5296199 -0.53364426 -0.48356673 -0.44988212 -0.30971265 -0.68175447 -0.54348433 -0.53486854
-0.36629364 -0.5045396 -0.54275876 -0.6074811 -0.35209167 -0.03399285 -0.3490623 -0.7295494
-0.6979196 -0.34825835 -0.5317098 -0.4157998 -0.41343865 -0.6600892 -0.31200534 -0.5180633
-0.8792992 -0.76565754 -0.62812424 -0.7288551 -0.98085064 -0.36499956 -0.46468243 -0.2901719

running_var f4 [32]
00000000: 9e03 4240 16e8 3240 36ab 3440 998b 2840
00000010: 13e0 4740 87ed 3b40 846b 2c40 db78 1240
00000020: e529 f23f 99d0 3940 309b 4540 49ff 3b40
00000030: c407 2740 3dc4 ed3f 86cb 2d40 108b 0e40
00000040: c9a4 2640 f7d8 3d40 0d3f 3c40 d57b ce3f
00000050: 8d27 4940 2a5e 2c40 b26a f33f 5a79 2440
00000060: 3528 2040 194e 0a40 afbd 3940 b660 2340
00000070: 8dc7 0940 e08f 1c40 2ce3 2c40 e3e4 2640
3.0314708 2.7954154 2.82295 2.6335204 3.1230514 2.9363725 2.6940622 2.2886264
1.8919035 2.9033568 3.087597 2.9374564 2.609849 1.8575512 2.715547 2.2272377
2.6038077 2.9663675 2.9413483 1.613154 3.143039 2.6932473 1.9016936 2.5699067
2.502454 2.1610167 2.9022024 2.5527778 2.1528046 2.4462814 2.7013655 2.6077201

weight f4 [16, 32]
00000000: c164 3a3d 2c3a 62bd a3ea 40be 0084 edbd
00000010: 99b1 eebc e801 5dbb 728f af3b f569 e4bc
00000020: 78da 1dbf 93b8 223c 3fdc af3d d78d 6cbc
00000030: 8059 55bd 4fff 42be 0550 423b a071 89be
00000040: f7bc 50be 2919 953c a6b7 f0bc d476 1ebf
00000050: 11eb f1bc de8f 70be 0baf c0be 68c7 0dbe
00000060: b4bf 79be ac6d dabe 9287 36bd 9418 6b3c
00000070: 9960 5bbe 6d48 65bd 3cc9 42bd 98a6 503d
00000080: cdc3 57bc 06dd a9bc ec0a a0bd 0a04 013d
00000090: 6e3a 803b a58f 593c 6b78 16be 2018 28bd
000000a0: deaf 8abe ebfa 8abc af54 92bb 2825 103c
000000b0: 1b84 14bc eedf 743d 59bb 453e aca9 22bf
000000c0: 74ed fcbe 7078 d03d f61d 093d 6af5 1dbe
000000d0: c514 06be 6d37 29bf 7217 16bd 452a f3be
000000e0: 1e2f 52be 91d8 36be 7493 a23c 9df3 dabd
000000f0: b522 5c3e 38c3 9dbc 9eab 84bd ae08 533e
00000100: df8d a7be dcf8 373e 9c89 09bf a6a5 733c
00000110: 92cf e0be 9d9c 2f3e 6713 c7be 3e87 083d
00000120: e8ac 6bbd 61e1 5e3e 1227 b8be 6739 3a3e
00000130: 5863 6abd c918 24be 923d a7bd dc38 203d
00000140: 4b5d f13c 99ba 46be 0811 07be 9458 8bbd
00000150: 33e0 9ebd e8a7 113d 0103 d8be 2621 d03c
00000160: 2821 9fbc a4f9 58bd e2c2 533e b99b d13d
00000170: 15aa a4be abbc 3f3e df1e 3ebd a0e6 83bd
00000180: e511 663d 4a6e 733c a222 603d fc43 15bd
00000190: ed22 523d b1db dc3b af09 01bd bb05 1cbf
000001a0: 219a 24bd 49ef 293c a29c 1e3d 8919 053c
000001b0: 83be 1dbf 1062 913d 0b6d 8f3d 8d17 02bd
000001c0: 94af 48bd 65e5 87be fb7c 9fbe 2f98 08bd
000001d0: 7c59 31bc 9421 6fbd 2f57 2f3c 164a 4cbc
000001e0: 428e 03bf 9621 c5be e452 943c c26b e7be
000001f0: 5ff1 72be badc 903d dc47 0fbf b2fb c83d
00000200: 1279 af3d e150 e7be 9992 7a3e 58c1 2dbe
00000210: 3227 543e d441 f8be 56c6 b13d 8aa5 473c
00000220: 0c70 7b3c 232a ecbe 1f05 3a3e 645e f8be
00000230: ae56 75bc 9b65 123e 2843 c3bd 35d8 20ba
00000240: 6ba1 4cbb 54db 063e df8d 9e3d 52de 883c
00000250: b44e 5e3d 3d31 7939 6f9f 223e c776 1a3c
00000260: 44cc 1ebd c3f6 f2bc 0c99 f1be 89ca 1ebd
00000270: 9c43 173e 1185 1abe 26c0 953c 1b0a e4bd
00000280: f6a1 ae3d 9459 5dbe 8e9a 1c3d e618 bfbe
00000290: 5671 853c 872e 44be f16d 26bc e162 0e3e
000002a0: c6ed 81be d56e 80be bff3 763c 6986 85be
000002b0: 410c 8a3d 173a 8abe a056 f0bd 34f9 cdbd
000002c0: e796 e8bc 590a a43c d0fb 183e f007 85be
000002d0: 0c69 2e3d ed01 81bc ed95 28be 7deb 4bbd
000002e0: 2734 7b3e 98b4 db3d 61b7 70be ab9e c13d
000002f0: 0f2a b13d 6482 01bf c8d6 013e 9b0f 6fbe
00000300: dc33 37bd 8147 3dbe 39d9 14bd 582d 03bf
00000310: 8339 0e3c 771a 40be b74c b63d e9ec 01be
00000320: 0a29 c7be 341f d0bd fd8e 94bd 56b0 7abe
00000330: ad89 0dbb 2b7f 80be b29c 58be 9caf ffbd
00000340: 71c6 81bd c7c3 0cbc c89d 99bb 896f f3be
00000350: 911e 70bd 370e d0bd e746 3ebe 7a1c 73bd
00000360: 5bc7 89bd d1de 7fbe 8e3c 37be 0936 9d3c
00000370: 3fd4 bfbd e629 a8be 0328 3cbd 0da4 a4be
00000380: c17c e6be b656 123d d69d c0be 2256 9b3c
00000390: 796f 0cbf 4784 99bc a990 77be 09e7 6dbe
000003a0: d06f 16be 6ab5 403d 4834 eabe f16d 783d
000003b0: ff72 83be b674 a33d 2ea4 7cbd 9fe2 e1bd
000003c0: 2d54 2dbe 6d5f b4be cbc8 bebe 3655 40bd
000003d0: 4776 04bf 0f34 7bbe c12e a33d a1d9 47be
000003e0: 453d c2bd eeb1 b63d 14d0 293d 94fc 69be
000003f0: 74d5 3c3e ee69 e6bc 4724 babe 6773 75bd
0.045506243 -0.05523126 -0.18839507 -0.115974426 -0.02913742 -0.003372306 0.005357676 -0.027882555
-0.6166148 0.009931701 0.085869305 -0.014438114 -0.052087307 -0.19042705 0.0029649746 -0.26844501
-0.20384584 0.018200474 -0.029384445 -0.6190007 -0.029531034 -0.23492381 -0.37633547 -0.13845599
-0.24389535 -0.42661798 -0.044562884 0.014349122 -0.21423568 -0.055977274 -0.047555193 0.050940126
-0.013169241 -0.020735275 -0.07814583 0.031497993 0.0039132154 0.013278876 -0.14694373 -0.041038632
-0.270873 -0.01696535 -0.0044656615 0.008797921 -0.0090646995 0.05978387 0.19309749 -0.6354015
-0.49399912 0.10179222 0.03347584 -0.1542565 -0.1309386 -0.661002 -0.036643453 -0.47493187
-0.20525786 -0.17856051 0.019845702 -0.10690997 0.21497615 -0.019258127 -0.06478046 0.2060878
-0.32725427 0.17966026 -0.537256 0.014871037 -0.43908364 0.17149587 -0.3888199 0.033332102
-0.057537943 0.21765663 -0.35967308 0.1818596 -0.057223648 -0.1602508 -0.081660405 0.039116725
0.02946343 -0.19407119 -0.1319009 -0.06804004 -0.07757606 0.03556052 -0.42189792 0.025406431
-0.01942499 -0.05297245 0.2067981 0.1023478 -0.32161012 0.18724315 -0.04641616 -0.064404726
0.05616941 0.014857838 0.05472053 -0.036441788 0.05130284 0.0067400564 -0.031503376 -0.60946244
-0.04018605 0.010371991 0.038723595 0.008123764 -0.6161882 0.07098782 0.0700322 -0.03176074
-0.04899557 -0.26542202 -0.3115004 -0.03334826 -0.010824557 -0.058381632 0.0107019385 -0.012468835
-0.51388943 -0.38502187 0.018105932 -0.451994 -0.23724888 0.0707335 -0.55969024 0.09813632
0.08568014 -0.45178893 0.24469985 -0.16968286 0.20718077 -0.48487723 0.08680408 0.012185464
0.015346538 -0.46125898 0.18166016 -0.48509514 -0.014974279 0.14296572 -0.095342934 -0.0006135733
-0.0031224142 0.13169605 0.077419035 0.016707573 0.054274276 0.00023764833 0.15881132 0.009427733
-0.03876902 -0.02965868 -0.47187078 -0.03876737 0.14771885 -0.15089823 0.0182801 -0.1113474
0.08526985 -0.21616203 0.038233332 -0.37323684 0.016289394 -0.19158374 -0.010158048 0.13904907
-0.2537672 -0.25084558 0.015072762 -0.2607911 0.067406185 -0.26997444 -0.117352724 -0.10057297
-0.028392268 0.020024465 0.14939809 -0.25982618 0.04258065 -0.015747989 -0.16463442 -0.049785126
0.24531613 0.10727805 -0.23507454 0.09454092 0.086506 -0.50589585 0.12679589 -0.23345797
-0.04472719 -0.18484308 -0.036339972 -0.51241064 0.008680704 -0.18760096 0.08901351 -0.1268803
-0.38898498 -0.101622015 -0.07253835 -0.2448133 -0.0021596954 -0.2509702 -0.21153525 -0.12484667
-0.06336678 -0.008591599 -0.0046879984 -0.47546032 -0.0586229 -0.10158961 -0.18581735 -0.05935333
-0.06727477 -0.24987341 -0.17894194 0.019190805 -0.093666546 -0.32844466 -0.045936596 -0.3215641
-0.45017055 0.035727225 -0.3762042 0.01896197 -0.54857594 -0.018739833 -0.24176277 -0.23232664
-0.1469109 0.04704801 -0.45743012 0.060651723 -0.25673673 0.07981245 -0.06168001 -0.11029553
-0.16926642 -0.35229054 -0.37262568 -0.046956263 -0.51742977 -0.24531578 0.07967902 -0.19516613
-0.094843425 0.08920656 0.041458204 -0.22850257 0.18440801 -0.028126683 -0.36355802 -0.05992451

bias f4 [16]
00000000: fdfc febc aba8 d63b c677 0bbe 6101 2c3d
00000010: 617d 053d 8754 3dbd 8c02 c73d 6d3d 983d
00000020: 144b 9d3c de37 7f3d a326 cb3d cc75 6c3d
00000030: 9544 053e ae0f 2c3e a19c 2a3d d642 693d
-0.031126494 0.0065508685 -0.13619909 0.041993503 0.032590274 -0.04622319 0.09717283 0.07433591
0.01920084 0.06230914 0.09919479 0.057729527 0.13014443 0.16802856 0.04165328 0.056948505

weight f4 [16]
00000000: ac1a fa3f 6844 f93f 4081 0440 afa5 1340
00000010: ae88 fe3f 142e 983f 72aa af3f 66a5 c53f
00000020: 70e1 af3f 985b 9d3f fcf8 b13f 7e88 bc3f
00000030: ecd1 d73f 74d0 d63f c2ab b23f c08f c03f
1.953939 1.9474001 2.0703888 2.3069875 1.9885461 1.1889062 1.3723891 1.5441101
1.3740673 1.2293577 1.3904109 1.4729154 1.6860938 1.6782365 1.3958666 1.5043869

bias f4 [16]
00000000: 4461 523d 60c5 0dbe b682 e93d a324 88bd
00000010: f35a 9f3c 3b3a 313e 6f65 c33e 5e23 90be
00000020: c9c6 b6bc bf70 c63e 342a 3c3e a916 c2bd
00000030: d4dd 4cbe bfc8 e43c 1c28 073f f7a9 8dbd
0.05136229 -0.13844824 0.11401884 -0.06647613 0.019452548 0.1730737 0.38163325 -0.28151983
-0.022311585 0.38757893 0.18375474 -0.09476978 -0.20006496 0.027927754 0.5279558 -0.06917184

running_mean f4 [16]
00000000: f3b9 6fbf 5489 2abf d0ce 32bf 978d 40bf
00000010: 3347 cfbe 1538 41bf 74dd 8cbf 4aa5 9fbf
00000020: 678b 5abf b63b 83be 5aae ccbe 92eb 38bf
00000030: 09f6 72bf e034 d3be 56ab 4bbf 4a5b 27bf
-0.9364311 -0.66615796 -0.6984682 -0.7521605 -0.40484008 -0.754762 -1.1005082 -1.2472317
-0.8536896 -0.25631493 -0.3997677 -0.7223445 -0.9490667 -0.41251278 -0.7955831 -0.6537367

running_var f4 [16]
00000000: 66b2 4b40 017f 3140 c1a6 2d40 1219 2440
00000010: d3c2 3840 0832 fa3f 17a0 3640 8e5c 2c40
00000020: a1bf 1340 204c f43f 9457 3240 db60 1040
00000030: c068 5440 1a44 2f40 cf83 fc3f 05ee 1040
3.1827636 2.7733767 2.7133029 2.5640302 2.8868911 1.9546518 2.853521 2.693149
2.308571 1.9085732 2.7865953 2.2559116 3.3188934 2.7385316 1.9727725 2.2645276

weight f4 [5, 16]
00000000: 8c19 3cbf fa7e c93e d4d5 93bf a018 3dbf
00000010: eabf 323e f607 a9bb 9ea7 9abe d3a2 69be
00000020: a847 d03e 2818 28bf 170b 02bf c314 6dbf
00000030: 06ca 383f d1f9 cebe d9df 5dbe d602 033f
00000040: 3487 fc3e 21d8 093f 2bb1 0e3e e52e 7c3e
00000050: 1130 35bf 6d40 8fbe 31f4 2e3e 01e6 1e3f
00000060: 4099 bbbe 3725 4ebe dbf8 60be 9a5c b73e
00000070: 99ce 313d 7073 ee3c 4577 28be b975 e6be
00000080: c81b eabd a7cd 7fbe 0a25 b2be 9a9d 1c3f
00000090: 86eb b13e 6ec1 11be a656 513e 4711 eabe
000000a0: b63f b43e 07d9 593e c912 6e3e 9574 603e
000000b0: eec0 59bf 4712 f63e a5ff 0cbf e56c 73be
000000c0: 3661 d2be cc21 ccbf 4753 bb3e 8b0b 81bf
000000d0: 57e2 89bf 31a6 3dbe ef3f 46be a49b 16bf
000000e0: c3dd 30bf d330 d03e 0e60 ae3d 78e4 8b3e
000000f0: 826c 30bf 4e02 ffbe 132a 263f c50e 3fbf
00000100: 9c7a 073f 6bf9 d13e 3c81 473d 1c0e 86bd
00000110: 9d86 b93e d3c7 bc3e 0127 e13e f6f4 bfbe
00000120: a347 63be 4279 bb3d ef5a 833e 5e1c 7fbd
00000130: f134 e1be fd48 c83e 0913 dfbd 48b5 6cbd
-0.7347648 0.39354688 -1.154963 -0.738657 0.17456022 -0.0051584197 -0.30206007 -0.22816019
0.4067967 -0.6566186 -0.5079817 -0.92609805 0.72183263 -0.4042497 -0.21667422 0.511762
0.49321902 0.5384541 0.13934772 0.24627264 -0.7077647 -0.2797884 0.17085339 0.6206971
-0.36640358 -0.20131384 -0.21969931 0.35812837 0.043409918 0.02910778 -0.16451748 -0.4501169
-0.1143108 -0.24980794 -0.34793884 0.6117798 0.34750003 -0.14233944 0.2044321 -0.45716307
0.35204858 0.21274196 0.23249353 0.21919473 -0.8506001 0.4806082 -0.5507758 -0.23772009
-0.4108979 -1.5947814 0.36586973 -1.0081648 -1.0772198 -0.18520428 -0.19360326 -0.5883124
-0.6908838 0.4066225 0.08514415 0.27322745 -0.6891557 -0.49806446 0.6490795 -0.7463191
0.5292146 0.41010603 0.048707232 -0.0654566 0.36235514 0.36871204 0.4397507 -0.37491578
-0.22195296 0.091539875 0.25655314 -0.062282912 -0.43985704 0.39118186 -0.108923025 -0.05779007

bias f4 [5]
00000000: 0ec4 733d 09c6 9d3c 5c4f 9cbe 9c94 9abd
00000010: dfd1 8f3e
0.059513144 0.01925947 -0.30529296 -0.07547876 0.28089806
