models/topic-classifier-softmax.pth (torch, 32747 bytes, 2 tensors)

weight f4 [5, 1536]
000000 4e 8c 3f 40 c0 74 29 bf c0 e1 ee bd 97 86 02 3f
       2.9929385 -0.6619377 -0.11664152 0.5098662
000010 17 f1 e7 3f 5a 28 e2 bf 73 fc a2 bf f6 2e 76 c0
       1.812045 -1.7668564 -1.2733291 -3.8466163
000020 21 11 c5 3f 33 e3 8a bd 72 97 17 40 92 ee a5 3f
       1.5395852 -0.06781616 2.3686185 1.2963431
000030 34 8c 6c 3f a5 cd 95 40 59 10 79 bf 3d 01 ee 3f
       0.92401433 4.681353 -0.9729057 1.8594128
000040 60 0b 1f bf 27 32 ca bf 4e aa ed bf 18 86 dc bf
       -0.6212673 -1.5796555 -1.8567598 -1.7228422
000050 42 ed 61 3f f3 74 80 be 70 10 45 40 77 8e 33 40
       0.8825265 -0.25089225 3.0791283 2.8055704
000060 f1 2c 1e bf 67 5f 32 c0 28 ec b7 3f 39 6a 2b 40
       -0.61787325 -2.787073 1.4368944 2.6783583
000070 70 af 76 3f b8 95 db be a4 07 cf bd 50 f7 4f c0
       0.96361446 -0.42887664 -0.10108879 -3.2494698
000080 f0 9d 07 40 c9 ba 3c bf 42 5b 27 bf 68 0c 22 40
       2.1190147 -0.7372251 -0.65373623 2.5320072
000090 a8 8e 0f 40 a0 58 00 40 ca 2a 50 be 68 3b 51 bf
       2.243082 2.0054092 -0.20328823 -0.8173127
0000a0 c8 43 a1 3f 54 0c 9b 3f 2e 33 e5 3f 29 72 b4 40
       1.259881 1.2113137 1.7906244 5.6389356
0000b0 c4 b9 92 3f e7 96 01 c0 9f 6b c8 bf 35 9e 07 3f
       1.1462941 -2.0248353 -1.5657843 0.5297578
0000c0 b0 60 d0 bf 87 0f ba bf 88 f3 64 3e 8b 1b 94 3f
       -1.6279507 -1.4535989 0.22358525 1.1570905
0000d0 66 83 e6 bd ce 09 15 3f cc 03 2c c0 72 0b 47 c0
       -0.11255531 0.58218086 -2.6877317 -3.1100736
0000e0 b7 e1 a2 3f df f4 db bf cd 75 62 be d2 f8 b7 bf
       1.2725133 -1.7184104 -0.2211525 -1.4372809
0000f0 e2 70 b1 be dc 2c 3a c0 86 53 fc be 8d ce 02 c0
       -0.34656435 -2.908988 -0.49282473 -2.0438569
000100 2e 4f 3a 3f 9a 86 da 3f 69 a5 7a c0 42 e0 82 c0
       0.7277707 1.7072327 -3.9163458 -4.089875
000110 b9 8c 37 c0 7e 65 59 bf eb a7 59 be f9 da 8e bf
       -2.867964 -0.8492049 -0.21255462 -1.1160575
000120 96 cd b9 3f 0f 96 9a bf 32 4d 09 3f f5 b3 aa bf
       1.4515865 -1.2077044 0.53633416 -1.3336169
000130 1c b6 8d 3f 64 c2 47 40 a1 68 ce 3f e4 3b c0 3f
       1.10712 3.1212397 1.612568 1.5018277
000140 0f 55 8e bf 69 bc 9b 3f 82 18 d0 bf fc 4c 91 3d
       -1.1119708 1.2166873 -1.6257479 0.07094762
000150 5d 03 6f bf 85 49 8a 3f 4b 17 89 bf ef db fb 3f
       -0.93364507 1.0803686 -1.0710233 1.9676493
000160 96 a1 6a bf ae 61 43 bf 76 1b 26 be 2c 86 da bf
       -0.9165281 -0.7632092 -0.16221413 -1.7072196
000170 79 47 56 c0 b5 d3 8f bf fe 13 ac bf 43 3d 58 3e
       -3.3481123 -1.1236483 -1.3443601 0.2111712
000180 f5 3b fe 3e e2 0d a1 3d 0a 66 25 c0 25 82 48 bf
       0.4965512 0.07863976 -2.584353 -0.78323585
000190 61 b6 f2 3f d1 45 cd 3f 86 2e f8 3e 1e a1 05 40
       1.8961908 1.6036931 0.48472995 2.0879588
0001a0 32 5a 2b 40 ba a7 6a 40 73 50 52 3f 97 98 16 c0
       2.67738 3.6664872 0.82154006 -2.3530633
0001b0 63 fc 7c be 91 57 3c 3f d7 48 2f 3d 45 40 17 3f
       -0.24705653 0.73571116 0.042794075 0.5908244
0001c0 b0 a5 29 40 42 af 8d 3f d6 83 33 40 e6 e9 17 bf
       2.6507378 1.106911 2.8049216 -0.59341276
0001d0 2d 1b 59 40 9f de 95 bf cf 5d 93 3f cc 13 a8 be
       3.3922837 -1.1708564 1.1513003 -0.32827604
0001e0 d6 2d 1a be ba 5c a9 be 5d ac c2 bf 7b 5f d1 3f
       -0.15056548 -0.33078557 -1.5208851 1.6357263
0001f0 88 46 de bf f9 ad 29 bf a9 b9 d2 3f 76 7d 35 c0
       -1.7365274 -0.66281086 1.6462909 -2.8357825
000200 bf cf 9e 3f fc 7b 9e bf 47 f5 1d c0 2c 64 de bf
       1.2407149 -1.2381587 -2.4680955 -1.737432
000210 35 68 84 3e 4c 5c 3f 40 17 0c 85 3f ca b9 42 3f
       0.25860754 2.9900084 1.0394315 0.7606474
000220 62 80 3f c0 f6 16 fe 3e e3 d4 23 3f 3c 77 0a be
       -2.9922109 0.49626893 0.63996714 -0.13522047
000230 ee bd 18 40 d7 c8 8d be b0 a6 37 bf e6 1d 01 40
       2.3865924 -0.2769229 -0.7173872 2.0174499
000240 be 30 15 40 b4 a8 01 c0 5d 64 14 3e 5a 17 ea 3f
       2.3311 -2.0259218 0.1449141 1.8288376
000250 13 9c c8 3f c9 99 12 40 4b 5e cc bf 8f bf d7 3f
       1.567263 2.2906363 -1.5966276 1.6855334
000260 8c 80 58 3f 79 d5 d7 3f 54 4f 9f 3f d3 17 a9 3f
       0.84571147 1.6862022 1.2446084 1.3210396
000270 31 1c 51 3d 28 34 1a 40 13 a9 c3 3f 58 be 69 bf
       0.051052276 2.4094334 1.5285972 -0.91306067
000280 0d 49 a3 bf 54 1e 0f be 41 b3 d6 be 61 ac c8 3e
       -1.2756668 -0.13976413 -0.41933635 0.39194015
000290 47 15 3e c0 bd 0b 12 c0 a3 17 6f bf 09 4f fb 3f
       -2.9700487 -2.2819664 -0.9339544 1.9633495
0002a0 03 01 e4 3f 98 ef a6 3f 07 10 74 bf 9a ed 14 3f
       1.7812809 1.3041868 -0.95336956 0.5817505
0002b0 10 cc a3 3f 80 db a5 bf ba f5 cf bf 74 25 ca 3f
       1.279665 -1.2957611 -1.6246865 1.579268
0002c0 26 a7 d0 bf 98 e4 b3 3f 96 df a8 bf 21 ce ec bd
       -1.630101 1.4054136 -1.3193233 -0.115627535
0002d0 68 5d 30 bf ae 39 bf be 56 51 ba bf 31 ae b7 3f
       -0.68892527 -0.37348694 -1.4556072 1.4350034
0002e0 d9 8f 0a 40 d9 ba 62 c0 2f 97 3b c0 64 24 d3 3f
       2.1650298 -3.5426543 -2.9311025 1.649548
0002f0 9b 73 f4 3f 33 41 d0 bf 74 58 9f bf 9e 0a e2 3f
       1.909778 -1.6269897 -1.2448869 1.765949
000300 60 ff 95 3f 19 05 1f bf 74 e8 4f 3e 2d 1a 42 3f
       1.1718559 -0.62117153 0.20303518 0.7582119
000310 eb 52 10 c0 4c ac 8a bf e8 19 25 3f 2e b7 11 bf
       -2.255061 -1.0833831 0.64492655 -0.56920135
000320 eb 2b 7e bf f2 dd 80 bf 20 a6 34 3f e3 e8 7c bf
       -0.99285764 -1.0067732 0.70565987 -0.98792857
000330 e8 c4 24 c0 05 3d ab bd d7 59 0e be 00 5a 9a bf
       -2.5745182 -0.08361248 -0.13901459 -1.2058716
000340 6e 5e 0b 3f 32 47 de 3e 14 a8 05 bf 50 21 81 be
       0.54440963 0.43413693 -0.5220959 -0.25220728
000350 f0 d4 11 c0 9c a3 0d c0 13 f4 c1 3d 7f 47 c9 3f
       -2.2786217 -2.213111 0.094703816 1.5724944
000360 4a f6 5b c0 f8 8d 3e 40 d1 a0 90 bf aa ba 86 3e
       -3.4369073 2.977415 -1.1299077 0.26314288
000370 39 44 28 3f f4 f0 92 be 36 d9 b6 3f 43 3f f6 bd
       0.657291 -0.28699458 1.4285038 -0.12023785
000380 79 ff 8b bf 74 c7 b4 bd 15 4d 69 bf 4b 9c 70 bf
       -1.0937339 -0.08827105 -0.9113324 -0.93988484
000390 5a 23 f8 be 54 7a 37 bf 01 60 87 3f 52 9f b9 3f
       -0.4846447 -0.7167103 1.0576173 1.4501746
0003a0 82 45 8b 3f da 83 63 be d6 56 06 3f 3f 6e 3c bf
       1.0880587 -0.22218266 0.5247625 -0.7360572
0003b0 32 5a dc bd c5 90 00 c0 dd 4c 24 c0 7f c5 b7 3c
       -0.10759391 -2.008836 -2.5671914 0.02243304
0003c0 eb 1c bc bf 7e 90 bf be f6 2d 88 3f 29 99 b8 bf
       -1.4696325 -0.37414926 1.0639026 -1.4421741
0003d0 27 23 c5 3d c5 07 9f bd b4 b6 4c bf 5a f4 cb bd
       0.096258454 -0.07765154 -0.7996628 -0.09958716
0003e0 5c 22 a9 bf 34 49 83 3f ec 31 06 40 16 c6 e5 3e
       -1.3213611 1.0256715 2.096797 0.4487769
0003f0 cd 97 b5 3e fb c0 56 bf 74 8e 16 c0 af cd 33 c0
       0.35467377 -0.83888215 -2.3524446 -2.809429

bias f4 [5]
000000 3c 21 81 be 65 db ce 3c 3e ed 1d be 6c c3 a5 be
       -0.25220668 0.0252511 -0.15422532 -0.32375658
000010 79 47 bf 3e
       0.37359217
